…
<span class="k">print</span><span class="p">(</span><span class="n">summary</span><span class="p">(</span><span class="n">model</span><span class="p">,</span> <span class="p">(</span><span class="mi">1</span><span class="p">,</span> <span class="mi">28</span><span class="p">,</span> <span class="mi">28</span><span class="p">)))</span>
</code></pre></div></div>
<p>ì´ë ‡ê²Œ ì–»ì€ modelì˜ summaryëŠ” ë‹¤ìŒê³¼ ê°™ìŠµë‹ˆë‹¤.</p>
<div class="language-plaintext highlighter-rouge"><div class="highlight"><pre class="highlight"><code>----------------------------------------------------------------
        Layer (type)               Output Shape         Param #
================================================================
            Conv2d-1            [-1, 6, 28, 28]             156
              ReLU-2            [-1, 6, 28, 28]               0
         MaxPool2d-3            [-1, 6, 14, 14]               0
            Conv2d-4           [-1, 16, 10, 10]           2,416
              ReLU-5           [-1, 16, 10, 10]               0
         MaxPool2d-6             [-1, 16, 5, 5]               0
            Linear-7                  [-1, 120]          48,120
              ReLU-8                  [-1, 120]               0
            Linear-9                   [-1, 84]          10,164
             ReLU-10                   [-1, 84]               0
           Linear-11                   [-1, 10]             850
================================================================
Total params: 61,706
Trainable params: 61,706
Non-trainable params: 0
----------------------------------------------------------------
Input size (MB): 0.00
Forward/backward pass size (MB): 0.11
Params size (MB): 0.24
Estimated Total Size (MB): 0.35
----------------------------------------------------------------
</code></pre></div></div>
…
