…
&lt;p&gt;이 모델은 최대한 원본 그림을 그대로 따라간 버전입니다. 채널수 96-&amp;gt;256-&amp;gt;384-&amp;gt;384도 똑같이 맞췄고, 5 by 5 convolution과 overlapping pooling을 적용했습니다.&lt;/p&gt;

&lt;p&gt;Convolution 파트의 결과값이 256채널 * 6 * 6 = 9216개의 뉴런이기 때문에, 9216 -&amp;gt; 4096 -&amp;gt; 4096 -&amp;gt; 10 으로 진행되는 MLP를 붙여야 합니다. 원본과 똑같이 dropout을 적용했습니다.&lt;/p&gt;

&lt;p&gt;이 모델의 summary는 다음과 같습니다.&lt;/p&gt;
&lt;div class=&quot;language-plaintext highlighter-rouge&quot;&gt;&lt;div class=&quot;highlight&quot;&gt;&lt;pre class=&quot;highlight&quot;&gt;&lt;code&gt;----------------------------------------------------------------
        Layer (type)               Output Shape         Param #
================================================================
            Conv2d-1           [-1, 96, 29, 29]           4,704
              ReLU-2           [-1, 96, 29, 29]               0
            Conv2d-3          [-1, 256, 29, 29]         614,656
              ReLU-4          [-1, 256, 29, 29]               0
         MaxPool2d-5          [-1, 256, 14, 14]               0
            Conv2d-6          [-1, 384, 14, 14]         885,120
              ReLU-7          [-1, 384, 14, 14]               0
            Conv2d-8          [-1, 384, 14, 14]       1,327,488
              ReLU-9          [-1, 384, 14, 14]               0
           Conv2d-10          [-1, 256, 14, 14]         884,992
             ReLU-11          [-1, 256, 14, 14]               0
        MaxPool2d-12            [-1, 256, 6, 6]               0
          Dropout-13                 [-1, 9216]               0
           Linear-14                 [-1, 4096]      37,752,832
             ReLU-15                 [-1, 4096]               0
          Dropout-16                 [-1, 4096]               0
           Linear-17                 [-1, 4096]      16,781,312
             ReLU-18                 [-1, 4096]               0
           Linear-19                   [-1, 10]          40,970
          AlexNet-20                   [-1, 10]               0
================================================================
Total params: 58,292,074
Trainable params: 58,292,074
Non-trainable params: 0
----------------------------------------------------------------
Input size (MB): 0.01
Forward/backward pass size (MB): 8.26
Params size (MB): 222.37
Estimated Total Size (MB): 230.64
----------------------------------------------------------------
&lt;/code&gt;&lt;/pre&gt;&lt;/div&gt;&lt;/div&gt;
…
&lt;p&gt;우선, linear layer의 크기를 확 줄였습니다. 이를 위해 적당히 맞춰서 앞부분의 크기도 줄였습니다. 뭔가 합당한 이유와 원리를 가지고 줄인건 아니고, 그냥 적당히 비율을 맞춰 줄여봤습니다.&lt;/p&gt;

&lt;p&gt;대신에, 좀더 넓은 범위를 보면서 feature를 추출할 수 있도록 첫 convolution 필터사이즈를 $7 \times 7$ 로 늘렸습니다.&lt;/p&gt;
&lt;div class=&quot;language-plaintext highlighter-rouge&quot;&gt;&lt;div class=&quot;highlight&quot;&gt;&lt;pre class=&quot;highlight&quot;&gt;&lt;code&gt;----------------------------------------------------------------
        Layer (type)               Output Shape         Param #
================================================================
            Conv2d-1           [-1, 64, 26, 26]           9,472
              ReLU-2           [-1, 64, 26, 26]               0
            Conv2d-3          [-1, 192, 26, 26]         307,392
              ReLU-4          [-1, 192, 26, 26]               0
         MaxPool2d-5          [-1, 192, 12, 12]               0
            Conv2d-6          [-1, 256, 12, 12]         442,624
              ReLU-7          [-1, 256, 12, 12]               0
            Conv2d-8          [-1, 256, 12, 12]         590,080
              ReLU-9          [-1, 256, 12, 12]               0
           Conv2d-10          [-1, 128, 12, 12]         295,040
             ReLU-11          [-1, 128, 12, 12]               0
        MaxPool2d-12            [-1, 128, 5, 5]               0
          Dropout-13                 [-1, 3200]               0
           Linear-14                 [-1, 2048]       6,555,648
             ReLU-15                 [-1, 2048]               0
          Dropout-16                 [-1, 2048]               0
           Linear-17                 [-1, 2048]       4,196,352
             ReLU-18                 [-1, 2048]               0
           Linear-19                   [-1, 10]          20,490
     SmallAlexNet-20                   [-1, 10]               0
================================================================
Total params: 12,417,098
Trainable params: 12,417,098
Non-trainable params: 0
----------------------------------------------------------------
Input size (MB): 0.01
Forward/backward pass size (MB): 4.38
Params size (MB): 47.37
Estimated Total Size (MB): 51.76
----------------------------------------------------------------
&lt;/code&gt;&lt;/pre&gt;&lt;/div&gt;&lt;/div&gt;
…
