…
&gt;,&lt;/span&gt; &lt;span class=&quot;mi&quot;&gt;28&lt;/span&gt;&lt;span class=&quot;p&quot;&gt;)))&lt;/span&gt;
&lt;/code&gt;&lt;/pre&gt;&lt;/div&gt;&lt;/div&gt;
&lt;p&gt;이렇게 얻은 model의 summary는 다음과 같습니다.&lt;/p&gt;
&lt;div class=&quot;language-plaintext highlighter-rouge&quot;&gt;&lt;div class=&quot;highlight&quot;&gt;&lt;pre class=&quot;highlight&quot;&gt;&lt;code&gt;----------------------------------------------------------------
        Layer (type)               Output Shape         Param #
================================================================
            Conv2d-1            [-1, 6, 28, 28]             156
              ReLU-2            [-1, 6, 28, 28]               0
         MaxPool2d-3            [-1, 6, 14, 14]               0
            Conv2d-4           [-1, 16, 10, 10]           2,416
              ReLU-5           [-1, 16, 10, 10]               0
         MaxPool2d-6             [-1, 16, 5, 5]               0
            Linear-7                  [-1, 120]          48,120
              ReLU-8                  [-1, 120]               0
            Linear-9                   [-1, 84]          10,164
             ReLU-10                   [-1, 84]               0
           Linear-11                   [-1, 10]             850
================================================================
Total params: 61,706
Trainable params: 61,706
Non-trainable params: 0
----------------------------------------------------------------
Input size (MB): 0.00
Forward/backward pass size (MB): 0.11
Params size (MB): 0.24
Estimated Total Size (MB): 0.35
----------------------------------------------------------------
&lt;/code&gt;&lt;/pre&gt;&lt;/div&gt;&lt;/div&gt;
…
